…
        "model = create_model()#(False)\n",
        "model.summary()"
      ],
      "execution_count": null,
      "outputs": [
        {
          "output_type": "stream",
          "text": [
            "Model: \"model\"\n",
            "__________________________________________________________________________________________________\n",
            "Layer (type)                    Output Shape         Param #     Connected to                     \n",
            "==================================================================================================\n",
            "input_1 (InputLayer)            [(None, 224, 224, 3) 0                                            \n",
            "__________________________________________________________________________________________________\n",
            "conv1_pad (ZeroPadding2D)       (None, 225, 225, 3)  0           input_1[0][0]                    \n",
            "__________________________________________________________________________________________________\n",
            "conv1 (Conv2D)                  (None, 112, 112, 32) 864         conv1_pad[0][0]                  \n",
            "__________________________________________________________________________________________________\n",
            "conv1_bn (BatchNormalization)   (None, 112, 112, 32) 128         conv1[0][0]                      \n",
            "__________________________________________________________________________________________________\n",
            "conv1_relu (ReLU)               (None, 112, 112, 32) 0           conv1_bn[0][0]                   \n",
            "__________________________________________________________________________________________________\n",
            "conv_dw_1 (DepthwiseConv2D)     (None, 112, 112, 32) 288         conv1_relu[0][0]                 \n",
            "__________________________________________________________________________________________________\n",
            "conv_dw_1_bn (BatchNormalizatio (None, 112, 112, 32) 128         conv_dw_1[0][0]                  \n",
            "__________________________________________________________________________________________________\n",
            "conv_dw_1_relu (ReLU)           (None, 112, 112, 32) 0           conv_dw_1_bn[0][0]               \n",
            "__________________________________________________________________________________________________\n",
            "conv_pw_1 (Conv2D)              (None, 112, 112, 64) 2048        conv_dw_1_relu[0][0]             \n",
            "__________________________________________________________________________________________________\n",
            "conv_pw_1_bn (BatchNormalizatio (None, 112, 112, 64) 256         conv_pw_1[0][0]                  \n",
            "__________________________________________________________________________________________________\n",
            "conv_pw_1_relu (ReLU)           (None, 112, 112, 64) 0           conv_pw_1_bn[0][0]               \n",
            "__________________________________________________________________________________________________\n",
            "conv_pad_2 (ZeroPadding2D)      (None, 113, 113, 64) 0           conv_pw_1_relu[0][0]             \n",
            "__________________________________________________________________________________________________\n",
            "conv_dw_2 (DepthwiseConv2D)     (None, 56, 56, 64)   576         conv_pad_2[0][0]                 \n",
            "__________________________________________________________________________________________________\n",
            "conv_dw_2_bn (BatchNormalizatio (None, 56, 56, 64)   256         conv_dw_2[0][0]                  \n",
            "__________________________________________________________________________________________________\n",
            "conv_dw_2_relu (ReLU)           (None, 56, 56, 64)   0           conv_dw_2_bn[0][0]               \n",
            "__________________________________________________________________________________________________\n",
            "conv_pw_2 (Conv2D)              (None, 56, 56, 128)  8192        conv_dw_2_relu[0][0]             \n",
            "__________________________________________________________________________________________________\n",
            "conv_pw_2_bn (BatchNormalizatio (None, 56, 56, 128)  512         conv_pw_2[0][0]                  \n",
            "__________________________________________________________________________________________________\n",
            "conv_pw_2_relu (ReLU)           (None, 56, 56, 128)  0           conv_pw_2_bn[0][0]               \n",
            "__________________________________________________________________________________________________\n",
            "conv_dw_3 (DepthwiseConv2D)     (None, 56, 56, 128)  1152        conv_pw_2_relu[0][0]             \n",
            "__________________________________________________________________________________________________\n",
            "conv_dw_3_bn (BatchNormalizatio (None, 56, 56, 128)  512         conv_dw_3[0][0]                  \n",
            "__________________________________________________________________________________________________\n",
            "conv_dw_3_relu (ReLU)           (None, 56, 56, 128)  0           conv_dw_3_bn[0][0]               \n",
            "__________________________________________________________________________________________________\n",
            "conv_pw_3 (Conv2D)              (None, 56, 56, 128)  16384       conv_dw_3_relu[0][0]             \n",
            "__________________________________________________________________________________________________\n",
            "conv_pw_3_bn (BatchNormalizatio (None, 56, 56, 128)  512         conv_pw_3[0][0]                  \n",
            "__________________________________________________________________________________________________\n",
            "conv_pw_3_relu (ReLU)           (None, 56, 56, 128)  0           conv_pw_3_bn[0][0]               \n",
            "__________________________________________________________________________________________________\n",
            "conv_pad_4 (ZeroPadding2D)      (None, 57, 57, 128)  0           conv_pw_3_relu[0][0]             \n",
            "__________________________________________________________________________________________________\n",
            "conv_dw_4 (DepthwiseConv2D)     (None, 28, 28, 128)  1152        conv_pad_4[0][0]                 \n",
            "__________________________________________________________________________________________________\n",
            "conv_dw_4_bn (BatchNormalizatio (None, 28, 28, 128)  512         conv_dw_4[0][0]                  \n",
            "__________________________________________________________________________________________________\n",
            "conv_dw_4_relu (ReLU)           (None, 28, 28, 128)  0           conv_dw_4_bn[0][0]               \n",
            "__________________________________________________________________________________________________\n",
            "conv_pw_4 (Conv2D)              (None, 28, 28, 256)  32768       conv_dw_4_relu[0][0]             \n",
            "__________________________________________________________________________________________________\n",
            "conv_pw_4_bn (BatchNormalizatio (None, 28, 28, 256)  1024        conv_pw_4[0][0]                  \n",
            "__________________________________________________________________________________________________\n",
            "conv_pw_4_relu (ReLU)           (None, 28, 28, 256)  0           conv_pw_4_bn[0][0]               \n",
            "__________________________________________________________________________________________________\n",
            "conv_dw_5 (DepthwiseConv2D)     (None, 28, 28, 256)  2304        conv_pw_4_relu[0][0]             \n",
            "__________________________________________________________________________________________________\n",
            "conv_dw_5_bn (BatchNormalizatio (None, 28, 28, 256)  1024        conv_dw_5[0][0]                  \n",
            "__________________________________________________________________________________________________\n",
            "conv_dw_5_relu (ReLU)           (None, 28, 28, 256)  0           conv_dw_5_bn[0][0]               \n",
            "__________________________________________________________________________________________________\n",
            "conv_pw_5 (Conv2D)              (None, 28, 28, 256)  65536       conv_dw_5_relu[0][0]             \n",
            "__________________________________________________________________________________________________\n",
            "conv_pw_5_bn (BatchNormalizatio (None, 28, 28, 256)  1024        conv_pw_5[0][0]                  \n",
            "__________________________________________________________________________________________________\n",
            "conv_pw_5_relu (ReLU)           (None, 28, 28, 256)  0           conv_pw_5_bn[0][0]               \n",
            "__________________________________________________________________________________________________\n",
            "conv_pad_6 (ZeroPadding2D)      (None, 29, 29, 256)  0           conv_pw_5_relu[0][0]             \n",
            "__________________________________________________________________________________________________\n",
            "conv_dw_6 (DepthwiseConv2D)     (None, 14, 14, 256)  2304        conv_pad_6[0][0]                 \n",
            "__________________________________________________________________________________________________\n",
            "conv_dw_6_bn (BatchNormalizatio (None, 14, 14, 256)  1024        conv_dw_6[0][0]                  \n",
            "__________________________________________________________________________________________________\n",
            "conv_dw_6_relu (ReLU)           (None, 14, 14, 256)  0           conv_dw_6_bn[0][0]               \n",
            "__________________________________________________________________________________________________\n",
            "conv_pw_6 (Conv2D)              (None, 14, 14, 512)  131072      conv_dw_6_relu[0][0]             \n",
            "__________________________________________________________________________________________________\n",
            "conv_pw_6_bn (BatchNormalizatio (None, 14, 14, 512)  2048        conv_pw_6[0][0]                  \n",
            "__________________________________________________________________________________________________\n",
            "conv_pw_6_relu (ReLU)           (None, 14, 14, 512)  0           conv_pw_6_bn[0][0]               \n",
            "__________________________________________________________________________________________________\n",
            "conv_dw_7 (DepthwiseConv2D)     (None, 14, 14, 512)  4608        conv_pw_6_relu[0][0]             \n",
            "__________________________________________________________________________________________________\n",
            "conv_dw_7_bn (BatchNormalizatio (None, 14, 14, 512)  2048        conv_dw_7[0][0]                  \n",
            "__________________________________________________________________________________________________\n",
            "conv_dw_7_relu (ReLU)           (None, 14, 14, 512)  0           conv_dw_7_bn[0][0]               \n",
            "__________________________________________________________________________________________________\n",
            "conv_pw_7 (Conv2D)              (None, 14, 14, 512)  262144      conv_dw_7_relu[0][0]             \n",
            "__________________________________________________________________________________________________\n",
            "conv_pw_7_bn (BatchNormalizatio (None, 14, 14, 512)  2048        conv_pw_7[0][0]                  \n",
            "__________________________________________________________________________________________________\n",
            "conv_pw_7_relu (ReLU)           (None, 14, 14, 512)  0           conv_pw_7_bn[0][0]               \n",
            "__________________________________________________________________________________________________\n",
            "conv_dw_8 (DepthwiseConv2D)     (None, 14, 14, 512)  4608        conv_pw_7_relu[0][0]             \n",
            "__________________________________________________________________________________________________\n",
            "conv_dw_8_bn (BatchNormalizatio (None, 14, 14, 512)  2048        conv_dw_8[0][0]                  \n",
            "__________________________________________________________________________________________________\n",
            "conv_dw_8_relu (ReLU)           (None, 14, 14, 512)  0           conv_dw_8_bn[0][0]               \n",
            "__________________________________________________________________________________________________\n",
            "conv_pw_8 (Conv2D)              (None, 14, 14, 512)  262144      conv_dw_8_relu[0][0]             \n",
            "__________________________________________________________________________________________________\n",
            "conv_pw_8_bn (BatchNormalizatio (None, 14, 14, 512)  2048        conv_pw_8[0][0]                  \n",
            "__________________________________________________________________________________________________\n",
            "conv_pw_8_relu (ReLU)           (None, 14, 14, 512)  0           conv_pw_8_bn[0][0]               \n",
            "__________________________________________________________________________________________________\n",
            "conv_dw_9 (DepthwiseConv2D)     (None, 14, 14, 512)  4608        conv_pw_8_relu[0][0]             \n",
            "__________________________________________________________________________________________________\n",
            "conv_dw_9_bn (BatchNormalizatio (None, 14, 14, 512)  2048        conv_dw_9[0][0]                  \n",
            "__________________________________________________________________________________________________\n",
            "conv_dw_9_relu (ReLU)           (None, 14, 14, 512)  0           conv_dw_9_bn[0][0]               \n",
            "__________________________________________________________________________________________________\n",
            "conv_pw_9 (Conv2D)              (None, 14, 14, 512)  262144      conv_dw_9_relu[0][0]             \n",
            "__________________________________________________________________________________________________\n",
            "conv_pw_9_bn (BatchNormalizatio (None, 14, 14, 512)  2048        conv_pw_9[0][0]                  \n",
            "__________________________________________________________________________________________________\n",
            "conv_pw_9_relu (ReLU)           (None, 14, 14, 512)  0           conv_pw_9_bn[0][0]               \n",
            "__________________________________________________________________________________________________\n",
            "conv_dw_10 (DepthwiseConv2D)    (None, 14, 14, 512)  4608        conv_pw_9_relu[0][0]             \n",
            "__________________________________________________________________________________________________\n",
            "conv_dw_10_bn (BatchNormalizati (None, 14, 14, 512)  2048        conv_dw_10[0][0]                 \n",
            "__________________________________________________________________________________________________\n",
            "conv_dw_10_relu (ReLU)          (None, 14, 14, 512)  0           conv_dw_10_bn[0][0]              \n",
            "__________________________________________________________________________________________________\n",
            "conv_pw_10 (Conv2D)             (None, 14, 14, 512)  262144      conv_dw_10_relu[0][0]            \n",
            "__________________________________________________________________________________________________\n",
            "conv_pw_10_bn (BatchNormalizati (None, 14, 14, 512)  2048        conv_pw_10[0][0]                 \n",
            "__________________________________________________________________________________________________\n",
            "conv_pw_10_relu (ReLU)          (None, 14, 14, 512)  0           conv_pw_10_bn[0][0]              \n",
            "__________________________________________________________________________________________________\n",
            "conv_dw_11 (DepthwiseConv2D)    (None, 14, 14, 512)  4608        conv_pw_10_relu[0][0]            \n",
            "__________________________________________________________________________________________________\n",
            "conv_dw_11_bn (BatchNormalizati (None, 14, 14, 512)  2048        conv_dw_11[0][0]                 \n",
            "__________________________________________________________________________________________________\n",
            "conv_dw_11_relu (ReLU)          (None, 14, 14, 512)  0           conv_dw_11_bn[0][0]              \n",
            "__________________________________________________________________________________________________\n",
            "conv_pw_11 (Conv2D)             (None, 14, 14, 512)  262144      conv_dw_11_relu[0][0]            \n",
            "__________________________________________________________________________________________________\n",
            "conv_pw_11_bn (BatchNormalizati (None, 14, 14, 512)  2048        conv_pw_11[0][0]                 \n",
            "__________________________________________________________________________________________________\n",
            "conv_pw_11_relu (ReLU)          (None, 14, 14, 512)  0           conv_pw_11_bn[0][0]              \n",
            "__________________________________________________________________________________________________\n",
            "conv_pad_12 (ZeroPadding2D)     (None, 15, 15, 512)  0           conv_pw_11_relu[0][0]            \n",
            "__________________________________________________________________________________________________\n",
            "conv_dw_12 (DepthwiseConv2D)    (None, 7, 7, 512)    4608        conv_pad_12[0][0]                \n",
            "__________________________________________________________________________________________________\n",
            "conv_dw_12_bn (BatchNormalizati (None, 7, 7, 512)    2048        conv_dw_12[0][0]                 \n",
            "__________________________________________________________________________________________________\n",
            "conv_dw_12_relu (ReLU)          (None, 7, 7, 512)    0           conv_dw_12_bn[0][0]              \n",
            "__________________________________________________________________________________________________\n",
            "conv_pw_12 (Conv2D)             (None, 7, 7, 1024)   524288      conv_dw_12_relu[0][0]            \n",
            "__________________________________________________________________________________________________\n",
            "conv_pw_12_bn (BatchNormalizati (None, 7, 7, 1024)   4096        conv_pw_12[0][0]                 \n",
            "__________________________________________________________________________________________________\n",
            "conv_pw_12_relu (ReLU)          (None, 7, 7, 1024)   0           conv_pw_12_bn[0][0]              \n",
            "__________________________________________________________________________________________________\n",
            "conv_dw_13 (DepthwiseConv2D)    (None, 7, 7, 1024)   9216        conv_pw_12_relu[0][0]            \n",
            "__________________________________________________________________________________________________\n",
            "conv_dw_13_bn (BatchNormalizati (None, 7, 7, 1024)   4096        conv_dw_13[0][0]                 \n",
            "__________________________________________________________________________________________________\n",
            "conv_dw_13_relu (ReLU)          (None, 7, 7, 1024)   0           conv_dw_13_bn[0][0]              \n",
            "__________________________________________________________________________________________________\n",
            "conv_pw_13 (Conv2D)             (None, 7, 7, 1024)   1048576     conv_dw_13_relu[0][0]            \n",
            "__________________________________________________________________________________________________\n",
            "conv_pw_13_bn (BatchNormalizati (None, 7, 7, 1024)   4096        conv_pw_13[0][0]                 \n",
            "__________________________________________________________________________________________________\n",
            "conv_pw_13_relu (ReLU)          (None, 7, 7, 1024)   0           conv_pw_13_bn[0][0]              \n",
            "__________________________________________________________________________________________________\n",
            "up_sampling2d (UpSampling2D)    (None, 14, 14, 1024) 0           conv_pw_13_relu[0][0]            \n",
            "__________________________________________________________________________________________________\n",
            "concatenate (Concatenate)       (None, 14, 14, 1536) 0           up_sampling2d[0][0]              \n",
            "                                                                 conv_pw_11_relu[0][0]            \n",
            "__________________________________________________________________________________________________\n",
            "up_sampling2d_1 (UpSampling2D)  (None, 28, 28, 1536) 0           concatenate[0][0]                \n",
            "__________________________________________________________________________________________________\n",
            "concatenate_1 (Concatenate)     (None, 28, 28, 1792) 0           up_sampling2d_1[0][0]            \n",
            "                                                                 conv_pw_5_relu[0][0]             \n",
            "__________________________________________________________________________________________________\n",
            "conv2d (Conv2D)                 (None, 28, 28, 1)    1793        concatenate_1[0][0]              \n",
            "__________________________________________________________________________________________________\n",
            "reshape (Reshape)               (None, 28, 28)       0           conv2d[0][0]                     \n",
            "==================================================================================================\n",
            "Total params: 3,230,657\n",
            "Trainable params: 3,208,769\n",
            "Non-trainable params: 21,888\n",
            "__________________________________________________________________________________________________\n"
…
